name_to_params.pth (torch, 467183 bytes, 18 tensors)

lstm.weight_ih_l0 f4 [256, 91]
000000 71 bb 81 bd 89 85 8c bb 5b c2 94 be c8 70 b3 bd
       -0.0633458 -0.0042883796 -0.2905453 -0.08761746
000010 d8 c0 b5 3d 78 27 14 3d 13 be ac 3e 78 21 db bc
       0.08874673 0.036170453 0.33738765 -0.026749358
000020 b2 05 5c 3a a2 aa de 3d 66 5b b4 be aa 22 95 3e
       0.00083931827 0.108723894 -0.3522598 0.2912801
000030 ab 74 3a bc 8c 54 f1 bc 03 06 94 bd 74 19 17 3d
       -0.011380355 -0.02945926 -0.07227709 0.03688951
000040 4f 20 12 be 5d ce 87 3b ac d8 53 3e 83 a4 fc bc
       -0.14270137 0.0041444735 0.20688123 -0.030840164
000050 03 e1 9e bb e8 11 3c 3e 04 f0 69 3c a9 4d 36 3d
       -0.004848601 0.18366206 0.014278416 0.044507656
000060 7c 9b 80 3d 3d 4c 13 bd 89 dc 3f be d9 5b c5 3e
       0.06279656 -0.03596138 -0.18736471 0.38546637
000070 45 a1 d4 3e b7 52 a7 be d1 ae 1a 3e 3a d4 66 bd
       0.4152929 -0.32680294 0.1510575 -0.05635474
000080 28 90 a9 bd 16 80 d8 3d 08 30 db 3d 45 9b 8e 3e
       -0.08279449 0.105713055 0.107025206 0.27852836
000090 20 e9 85 3c 62 c8 94 3e 88 b4 29 be 9d e1 fd 3d
       0.016346514 0.2905913 -0.16572773 0.12396548
0000a0 97 35 c9 bd d9 02 56 3e 66 1f 26 3c 5b 2b d9 3e
       -0.098246746 0.20899524 0.010139322 0.4241589
0000b0 8b 17 9b 3a 44 be 25 3f b2 18 b9 3d 6e f8 a2 bc
       0.0011832578 0.6474345 0.090379134 -0.019893851
0000c0 dd c1 a6 3e bc 81 70 3d dd 67 a0 3d 5a b0 8a be
       0.3256978 0.058717474 0.0783231 -0.2708767
0000d0 da 0d 2c be c4 d5 a3 3e cc a3 0e 3e a1 83 83 3c
       -0.16802159 0.31999028 0.13929671 0.016053976
0000e0 03 d4 bc 3e 09 14 16 bd 03 69 1c 3e 7e 96 a2 be
       0.36880502 -0.0366402 0.15274434 -0.3175544
0000f0 d8 33 d2 3d 02 29 a7 bc a4 cc ec be 74 e4 fa 3d
       0.10263795 -0.020405296 -0.46249878 0.12250605
000100 66 ec 60 be 45 b1 91 be be 33 4d be 6c 00 9e 3e
       -0.21965179 -0.28455558 -0.2003927 0.30859697
000110 e0 59 a8 be ca c1 8d 3e b7 8f a2 bd c1 d9 54 3e
       -0.3288107 0.27686912 -0.07937568 0.20786192
000120 73 c5 f5 be ba 55 40 3e bb 15 87 3e a5 6c fd bd
       -0.48002204 0.18782702 0.26383767 -0.12374238
000130 f2 9e 9f bd 48 40 37 3d f9 8a 1b be 06 69 a6 3d
       -0.07793988 0.044739038 -0.15189733 0.081255004
000140 f6 39 fc 3d 40 33 9c bc 7f 8c 4f 3e fe 5f a7 be
       0.12315743 -0.019067407 0.20268439 -0.32690424
000150 60 99 20 bd 6a 93 e4 bd 88 f0 c4 3c c8 d9 d4 3c
       -0.03920877 -0.111609295 0.024040475 0.025982752
000160 f0 e3 68 bc fe 8d c1 bd 53 54 f9 3d a0 88 40 3e
       -0.014214501 -0.09450911 0.12174287 0.18802118
000170 fe 2a 9f be 56 66 a8 be af 88 0e 3c aa f2 08 3d
       -0.31087488 -0.32890576 0.00869958 0.033434547
000180 f9 83 0b 3f 73 e7 9b be 76 f3 81 bc 67 44 95 be
       0.5449825 -0.3045002 -0.015863162 -0.2915375
000190 33 c0 f5 3d 0e da bd be bb ac 1c 3e 35 38 78 bd
       0.1199955 -0.37080425 0.15300266 -0.06060048
0001a0 6b 4a f7 bc bd 8e 33 3e 56 d7 e4 be eb 3a e7 3e
       -0.030186852 0.17534919 -0.44695538 0.45162138
0001b0 c8 25 c2 3e 0a cc d6 3e f3 14 63 bd cf 44 04 bf
       0.3791945 0.41952544 -0.0554399 -0.51667494
0001c0 ab 41 04 3d e5 81 4e 3d 01 46 1d 3e e1 0d c1 3e
       0.03228919 0.050416846 0.15358736 0.377059
0001d0 61 65 36 3e f1 29 f4 3c ae a8 cd 3d 32 58 73 3e
       0.1781211 0.029805155 0.10041939 0.23764113
0001e0 07 3b a0 3e e4 25 68 3e db 38 44 3e b3 7f 4a be
       0.31295034 0.22670704 0.19162314 -0.19775276
0001f0 f8 ac c6 bc a2 f5 f2 be e6 01 27 bd a0 60 e3 bb
       -0.0242524 -0.47453028 -0.040773295 -0.006939009
000200 f8 d6 b6 be 4e 34 79 be 6d 61 93 3e af 1a ec be
       -0.35710883 -0.24336359 0.28785267 -0.46114108
000210 36 fb 3b be 82 28 67 bc 3f 0e 60 3e f5 cd fb 3d
       -0.18357548 -0.014108779 0.21880434 0.122951426
000220 42 a5 ca bd 18 da e9 3d 09 a8 61 be 9d b0 99 3e
       -0.09894802 0.11418551 -0.22036757 0.30017558
000230 01 1c 5b 3e 0a 4a 6e be 5e 3c 6a be 6d ec a9 3e
       0.21397401 -0.23270431 -0.22874591 0.3318819
000240 9f 77 c3 3c ce 08 90 3e e5 be 0c 3d 55 d1 6b bf
       0.02386075 0.28131717 0.03436174 -0.9211629
000250 c6 9b 49 3c c3 32 ef bc 72 ea f1 3c f1 77 f9 bd
       0.012305206 -0.02919901 0.029530738 -0.1218108
000260 9b 04 70 bf ca 3a 3e 3e ca 92 3b 3e a2 1f c2 3e
       -0.9375703 0.18577114 0.18317714 0.3791476
000270 6e db 21 be d4 d8 0a 3e e9 06 ff 3e b6 cf cd 3d
       -0.15806362 0.13559276 0.4980996 0.10049383
000280 5d 17 f0 3d c2 24 dd 3d c6 ce 3f be d0 9c 3b bf
       0.11723206 0.107980266 -0.18731222 -0.7328615
000290 b1 7a 4c 3e 4c ee 15 be 32 90 54 bf 27 54 a7 3e
       0.19968678 -0.14641684 -0.83032525 0.3268139
0002a0 80 68 98 3b f0 13 4d 3e c8 87 6e bd 20 21 71 bd
       0.0046511292 0.20027137 -0.05823496 -0.05886948
0002b0 56 35 9d 3d 93 ee 4f 3d 93 5a e6 be 10 9e 77 3d
       0.07676189 0.05076463 -0.44990978 0.060453475
0002c0 bc 68 66 bd 60 29 ed bb cc b5 72 3d 80 81 9b bd
       -0.056252226 -0.0072375983 0.059255406 -0.075930595
0002d0 54 b3 aa 3d af 4c bb bd 62 37 f7 bb 0b 84 bf bd
       0.083349854 -0.091454856 -0.007544444 -0.09351357
0002e0 08 95 85 be e0 e3 8f be 2d ad 46 3e 45 d3 1a 3e
       -0.26090264 -0.28103542 0.19401999 0.15119655
0002f0 76 f6 44 3e 4c d8 7a be f5 63 3f be 13 4d 24 3e
       0.19234642 -0.24496573 -0.18690474 0.16045026
000300 54 dd 13 bc b2 af 7f be bf b6 75 3e 4a b3 10 be
       -0.009024937 -0.24969366 0.23995493 -0.14130893
000310 e0 f0 af bd 15 77 b7 be 65 26 be 3e d5 29 58 be
       -0.08590865 -0.3583304 0.37138668 -0.21109708
000320 7b 90 a4 be b3 2d 21 be c6 a4 b6 bd 79 08 96 bd
       -0.3214148 -0.15740089 -0.08918147 -0.07325835
000330 96 b7 3c bd 38 8c 5a bb f3 c3 94 bd e6 0a f6 3d
       -0.04607352 -0.0033347737 -0.07263937 0.120137975
000340 a7 dd 10 3d ff 4b 7c be ea 4e b9 be dc 59 38 3d
       0.035367634 -0.24638365 -0.3619302 0.04500757
000350 10 26 21 3f 65 d3 63 3e 42 d8 d9 3d 5a 2f bc bd
       0.62948704 0.2224861 0.10636951 -0.09188719
000360 f6 28 81 bc 9c aa a7 3e 30 9a c5 bc 99 60 dc bd
       -0.015766602 0.32747352 -0.024121374 -0.10760612
000370 c3 e9 7c 3e f8 80 50 3e 9d da 15 bf 4b 23 93 3d
       0.24698548 0.20361698 -0.585367 0.07184466
000380 8e df 19 bd 7e d5 8e 3e cf 47 4a 3e f3 18 7e be
       -0.037566714 0.27897257 0.19753955 -0.24814205
000390 a7 44 c8 bd 76 a9 3e 3d 8a 28 cc 3d 49 b5 2c 3e
       -0.097787194 0.04654833 0.0996867 0.1686603
0003a0 ec fd 50 3e 94 09 74 3e e4 35 14 3c 48 6a 52 be
       0.20409364 0.23831779 0.009046052 -0.20548356
0003b0 96 83 c0 bc c5 c8 11 3c 23 0b 2e 3b 65 6b d4 3e
       -0.023500245 0.008897965 0.002655693 0.41488186
0003c0 a6 09 c7 bd bc 79 8b 3c de 55 b0 bd dc a8 76 bd
       -0.09718637 0.01702582 -0.08610128 -0.06021963
0003d0 d5 2c bd 3d 0a 5a f6 bd ac 9e 25 be ac b3 9f be
       0.09237067 -0.12028892 -0.1617381 -0.31191766
0003e0 b3 b9 5a 3d 5a f0 11 3f 1d 42 2b be a5 3f 78 3e
       0.053399753 0.5700737 -0.16724439 0.24243028
0003f0 78 7f fd 3c 08 1b b7 3d 18 bd 9d bd 3a 03 72 bc
       0.03094457 0.08940703 -0.077020824 -0.014771277

lstm.weight_hh_l0 f4 [256, 64]
000000 c3 72 70 3e 9c 93 e5 3d 40 90 a9 3d d4 90 dd bd
       0.23481278 0.11209795 0.08279467 -0.108186394
000010 90 8b d9 3d 72 3b 2f be 51 28 0c be 35 03 3c be
       0.106223226 -0.1711252 -0.13687254 -0.18360598
000020 58 38 27 bc a7 c6 1f be 6b 9b af 3d 88 0e ad bd
       -0.0102063045 -0.15603124 0.085745655 -0.08450037
000030 ac 7a 89 bd d3 a6 53 3d e1 81 f0 bd 7f c6 7e 3d
       -0.06712851 0.051672768 -0.117435224 0.06220102
000040 ff 34 66 be 42 f3 f8 3d c9 ca 34 3d 3b 72 21 be
       -0.22481154 0.12155773 0.044138703 -0.15766232
000050 7c 24 a6 bc bc 2f e3 3c 8d 61 92 3e 7e 32 65 be
       -0.020281069 0.027732722 0.2859005 -0.22382542
000060 c8 3c c4 3d 04 a3 e6 bd 4e 21 9e bd c9 8c 69 bc
       0.095819056 -0.112615615 -0.07721196 -0.014254757
000070 ad 25 31 bd a0 71 a4 be 72 54 06 bd 0a 71 03 be
       -0.04324882 -0.3211794 -0.032795377 -0.1283609
000080 42 67 57 3e 5c ea 83 be f0 16 00 3e ec 1d 0c 3d
       0.21035483 -0.2576474 0.1250875 0.034208223
000090 17 18 11 3c 01 21 56 be f9 22 b8 bd d4 a5 4c 3e
       0.008855841 -0.20911027 -0.089910455 0.19985133
0000a0 bf a3 e1 3d 11 34 8b bd f8 78 89 bd a3 d4 3d 3d
       0.1101756 -0.0679704 -0.06712526 0.046345364
0000b0 2e 82 e4 3e 00 b5 11 bd 29 1e df bd 95 5d 79 3d
       0.4463057 -0.035573006 -0.108944245 0.060880262
0000c0 a8 f1 e7 3e 44 c8 71 bd 2e 7a 44 3d 92 f5 24 3e
       0.45301557 -0.05902888 0.047968082 0.16109303
0000d0 31 5c 66 be 15 5d b3 3d 45 89 9d 3d eb 9b 97 3d
       -0.22496106 0.08757988 0.07692198 0.07402786
0000e0 bb fc bd bb f6 29 69 be 3f 22 27 3d 70 bb a9 3c
       -0.00579795 -0.22769913 0.040804144 0.02071926
0000f0 e1 85 1b bd d0 97 1e 3e 6b 72 f7 3d 67 62 04 3e
       -0.037969474 0.154876 0.1208237 0.12928163
000100 bc a2 e1 3d 81 a1 92 3e c9 33 a1 3d a1 a0 62 3d
       0.11017367 0.28638843 0.07871205 0.05532897
000110 7d 08 0a 3f 22 ad 1d be f8 87 e1 bd 28 15 05 be
       0.539192 -0.15398076 -0.11012262 -0.12996352
000120 b7 82 2e 3e ab 97 c4 be 15 3c 47 3e 87 79 e5 be
       0.17042051 -0.38396963 0.19456513 -0.4481928
000130 b9 ea 80 be b9 28 ec be 41 17 81 3d 9d ed 39 3d
       -0.2517908 -0.4612482 0.063032635 0.04539262
000140 c3 b0 73 3d 1a 89 5c bd 79 da 4c 3e b6 9a da bd
       0.059494745 -0.053841688 0.20005216 -0.1067404
000150 39 9e 40 3e 53 d3 c9 3d e6 0a 2f 3d 66 9c 06 be
       0.18810357 0.0985476 0.042735003 -0.13145599
000160 9d a7 8d 3e 16 ae e2 bd 7c a9 a4 be 99 ee 92 3d
       0.2766694 -0.110683605 -0.32160556 0.07174415
000170 47 ea 16 bd 90 4e 27 3e 57 12 99 bc bc 4a 13 3e
       -0.036844518 0.16338563 -0.018685503 0.14383978
000180 6b 95 92 bd 6f 1f 14 bf e0 e0 35 be 9c bd 06 bd
       -0.071574055 -0.57860464 -0.17761564 -0.03289567
000190 3c 84 94 3e 49 81 9c 3e 49 cb 0c be 9f c1 2b 3e
       0.29007137 0.30567387 -0.13749422 0.1677308
0001a0 39 16 66 3e 05 84 12 be ac 8d 67 3d 1e cc 89 be
       0.22469415 -0.14308174 0.056531593 -0.26913542
0001b0 a9 49 cd bd 82 09 07 be 14 81 08 bd 6f 0a e9 3e
       -0.10023815 -0.1318722 -0.033326223 0.45515773
0001c0 89 3d 05 bf 3e 71 bc be cd 39 e9 3c 2c a0 ad 3e
       -0.5204702 -0.36805147 0.028469944 0.33911264
0001d0 50 0b ab 3d 8a d1 2a 3e fd 41 3d bd 62 fc 9f be
       0.08351767 0.16681495 -0.04620551 -0.3124724
0001e0 b0 9a 11 bb 69 e0 24 bd b5 13 7c 3d 9c f2 a4 bc
       -0.0022217445 -0.040253077 0.06154223 -0.020135216
0001f0 fa b6 d1 3d 9c b0 4f be c8 77 55 be 11 bf 79 3e
       0.10239978 -0.20282215 -0.20846474 0.24389292
000200 f8 19 47 be 02 6f 7b 3d b3 35 88 3e d0 c7 14 bd
       -0.194435 0.061385162 0.2660347 -0.03632337
000210 50 d9 1b bb fc 5f 2e bd f4 e2 5e ba a4 1c c7 bd
       -0.0023780651 -0.042572007 -0.00085024466 -0.0972226
000220 3e be eb bd 1b 4d dc 3c 55 73 5c 3d 7c 51 0c 3c
       -0.11510895 0.026892236 0.053820927 0.008564349
000230 a5 0f a3 bd 18 01 12 3d 7d 5b b6 3e 7f 0d 65 bb
       -0.07961968 0.035645574 0.35616675 -0.0034950671
000240 77 d4 05 be 6d 0e ce 3c 16 d5 0f 3e 81 4e e4 3e
       -0.1306933 0.025153363 0.1404613 0.44591144
000250 4d 2a 8c 3d e4 b6 0e 3e 7c f6 25 bd 32 5c 9a 3e
       0.06844006 0.13936955 -0.04051827 0.30148464
000260 15 52 14 3e 56 c2 b8 3d 4e a0 ef 3d f0 71 07 be
       0.14484437 0.09021442 0.117004976 -0.13227057
000270 8e 3b a9 3d 6b c2 0a bd 05 6d 9e bd bd c2 9f bd
       0.08263312 -0.033876818 -0.077356376 -0.07800815
000280 c9 0b 83 bd e8 f3 3c 39 55 df a5 be 04 7e a0 be
       -0.06398732 0.0001801994 -0.3239695 -0.31346142
000290 fb ef b2 3d d0 37 91 3e 5e 4b 66 bd 6e 35 b1 3c
       0.08737179 0.28362894 -0.05622422 0.021631923
0002a0 dc 95 92 3d 01 88 04 3e e9 24 53 3e ec c2 33 be
       0.0715749 0.12942506 0.20619549 -0.17554826
0002b0 9f ec 44 be e1 6b f0 3d 85 81 11 3e c2 55 76 bd
       -0.19230889 0.11739326 0.14209564 -0.06014038
0002c0 88 48 d8 bd ef 1f 45 3e 41 1c cb 3d ce 49 f8 3d
       -0.10560709 0.19250463 0.099174984 0.12123452
0002d0 1d 13 95 3d 0c eb cc bc d1 6e 54 3e 9a 00 cf 3d
       0.07279036 -0.025014423 0.20745398 0.101075366
0002e0 30 32 fa bc 54 54 1b be 10 a8 2c 3e ae 0d 58 3d
       -0.03054151 -0.15168887 0.16860986 0.05274742
0002f0 98 ff f6 bd d9 77 37 3e 02 00 a1 3c 1e 46 06 be
       -0.120604694 0.17916812 0.019653324 -0.13112685
000300 91 ed aa 3e 9b 07 fc bd 0e 18 0d 3e e0 f9 50 3e
       0.33384374 -0.12306138 0.13778707 0.2040782
000310 ce be cb 3c df fd be be 77 04 7f 3e 2d db 8b be
       0.024871256 -0.37303063 0.24904047 -0.27315655
000320 00 f6 25 3c 84 95 b3 3d c2 d8 dd 3e 82 f4 46 be
       0.010129452 0.08768752 0.43329436 -0.1942921
000330 45 b9 49 be 21 8a 81 be eb 3b 3a bd 07 90 db bd
       -0.19699581 -0.25300696 -0.0454673 -0.107208304
000340 e1 f5 c0 3d 3f 26 3c bd cc 0d c8 3d 52 75 d2 3c
       0.09421898 -0.04593491 0.097682565 0.025690708
000350 59 b7 89 3e f8 1c af 3e 9a 01 4b 3d ed cf b0 3e
       0.26897696 0.3420179 0.049562074 0.34533635
000360 24 1d d6 3d 4a ac 2a be 57 e9 fe bd 56 51 44 bd
       0.10454777 -0.16667286 -0.1244685 -0.04792913
000370 8b c3 2e be 00 e5 b9 bd 26 12 c7 3d 8a 4c 3c be
       -0.17066781 -0.090768814 0.097202584 -0.18388572
000380 fa bb d0 bd 7f ad 4c 3e 9e d7 30 bc 30 8c 8f be
       -0.10192104 0.19988059 -0.010793595 -0.28036642
000390 62 46 30 bc 35 3c 93 3e 47 fb 6f be d0 e8 bc be
       -0.010758968 0.28756872 -0.23435698 -0.36896372
0003a0 e4 4f 38 3e b6 15 4f be 85 77 99 3e 28 ca 2e be
       0.17999226 -0.20223126 0.29974 -0.17069304
0003b0 80 17 6b be 7d 08 0c 3e bc 1f 7b 3e f6 7d a3 3d
       -0.22958183 0.13675113 0.24523824 0.079830095
0003c0 84 69 f0 3d df f6 60 3e 6e a8 eb 3e cc 0e c0 3e
       0.117388755 0.21969174 0.4602694 0.3751129
0003d0 3f 8f 58 3e 00 cd d6 3d 4c 90 07 3e 2e 02 7e bd
       0.21148394 0.104883194 0.13238639 -0.062013797
0003e0 79 b3 fc bd 1f fb 77 3e 1e db a2 3e 35 a9 01 be
       -0.12338919 0.24216889 0.31807798 -0.12662204
0003f0 65 a2 44 be 29 68 66 bc 53 a9 0c 3e c5 f6 8b 3e
       -0.19202574 -0.01406292 0.13736467 0.27336708

lstm.bias_ih_l0 f4 [256]
000000 7a bf f8 3d 59 d9 13 3e e6 07 52 bd b6 1b 75 3e
       0.12145896 0.1443838 -0.051277064 0.23936352
000010 bf d3 84 3d b8 7a 43 3d 43 e7 b4 3d 7a 3a fb 3d
       0.064857 0.047724456 0.08833172 0.12267013
000020 75 9d 76 3e 16 3a 37 3d e8 3c b9 3e 18 61 87 3e
       0.24083503 0.04473313 0.3617928 0.26441264
000030 18 56 07 3d b5 8b 09 3e 71 a9 98 3e 52 88 43 3e
       0.03304109 0.134322 0.29816774 0.19094971
000040 1a 60 ac 3e bd 14 98 3e f0 3d f5 bc 0c e5 50 3e
       0.3366707 0.29703322 -0.02993676 0.20399874
000050 21 82 40 3e 27 79 fd 3d 4f 55 d8 3c c7 2a 02 3e
       0.1879964 0.123766236 0.026407866 0.12711631
000060 fd fb 76 3d 7e ad 00 bd 13 64 20 3e 92 e3 a3 3d
       0.06029891 -0.031415455 0.15663175 0.0800239
000070 e5 d8 55 3d 79 0a 86 3d f0 3d 90 3d d0 85 44 bd
       0.0522088 0.06544966 0.07043064 -0.047979176
000080 00 c5 95 3d a8 e7 97 3e a1 b3 05 3e 1b 38 f5 3d
       0.073129654 0.29668927 0.13056804 0.11973592
000090 76 0f 2b bd d2 37 b7 3d 83 a0 d9 bd c2 ba 8f 3d
       -0.04176279 0.08946194 -0.10626318 0.07018043
0000a0 02 fd 1b 3d 6f ee a1 bd 0a d4 8e 3e 32 32 7d 3d
       0.038083084 -0.07906806 0.27896148 0.061815448
0000b0 cf 06 b4 3e 6b f0 68 3e 67 9b 27 3e 86 6e 69 3e
       0.35161445 0.22747962 0.16367875 0.22796068
0000c0 37 11 44 3e d1 1b d4 3e 37 07 99 3e 03 65 86 3e
       0.19147192 0.41427472 0.29888317 0.2624894
0000d0 20 9c 4c 3e 81 d3 20 3e eb 78 d0 3e 4f 89 a1 3e
       0.19981432 0.15705682 0.40717253 0.3155007
0000e0 cd 63 14 3d ad 4a ea 3b 9e db f9 3c 20 ee cd 3d
       0.03622799 0.0071500153 0.03050023 0.10055184
0000f0 af e3 21 bc 84 d3 eb 3e c4 4d 46 b9 40 56 aa bc
       -0.009880944 0.4605981 -0.00018911721 -0.02079308
000100 8c a1 6a 3e 0d bb 7a bd 34 1a 39 3d 67 a0 94 3e
       0.22913188 -0.06121354 0.045191005 0.29028627
000110 02 32 00 3e 23 2f a2 3d 86 96 74 3c d0 a0 5f b8
       0.12519076 0.07919147 0.014928466 -5.331711e-05
000120 b8 3d 8a 3e 54 77 99 3e 9d ee 50 3e b1 f2 85 3e
       0.27000213 0.29973853 0.20403524 0.2616172
000130 4b c9 b2 3d 53 0c 03 3e 3f 74 06 3e 4e 49 d8 3d
       0.087298 0.1279767 0.13130282 0.10560857
000140 cb b9 68 3e 4f 57 ec 3d 28 fc a7 3c 46 00 58 3e
       0.22727124 0.1154009 0.02050598 0.21093854
000150 59 e9 2a 3e 21 90 52 bb 8a 50 e0 3d e7 f4 65 3e
       0.16690578 -0.0032129365 0.109528616 0.22456704
000160 82 75 46 3c a8 2b 19 3d 43 89 a6 3d 9e 63 74 3e
       0.012112977 0.03739515 0.08131649 0.23866126
000170 39 94 b0 3d 23 54 0c 3e 75 c3 08 3e 78 2e 34 3e
       0.08622021 0.1370397 0.13355811 0.17595851
000180 72 6b 82 3d 9e 25 8a 3e 41 80 68 3e 99 13 4a bc
       0.0636815 0.26981825 0.22705175 -0.012333774
000190 5c 8e 70 3c 59 fe 10 3e 3f 5c 63 bd 53 c3 26 3e
       0.014682379 0.14159526 -0.055507895 0.16285448
0001a0 10 0c 45 3e 20 f1 ee 3d 30 11 70 3e 4f b2 38 3e
       0.19242883 0.11667085 0.23444057 0.1803677
0001b0 63 c9 87 3e 3c 75 0a 3e 8b c8 4d 3e 50 e7 31 3c
       0.26520833 0.13521284 0.20096032 0.010858372
0001c0 50 b2 94 3e 8c ad 37 3e af 62 30 3e 8d ef 0f 3e
       0.29042292 0.17937297 0.17225145 0.14056225
0001d0 dc 17 0f 3d 08 6f 4c 3e 3d c6 95 3e 1b f4 44 3e
       0.034934863 0.1996423 0.29252806 0.19233744
0001e0 c6 5c 89 3e a8 70 ab 3c c4 b5 f1 bc a6 87 81 3d
       0.26828593 0.020927742 -0.029505618 0.06324701
0001f0 9c b1 01 3e 4a 47 7c 3e 7d 9e d0 3d f7 0a f6 bd
       0.12665409 0.2463657 0.10186479 -0.1201381
000200 21 51 4e 3c dc 5e 97 bd 93 43 ab 3d 1d c7 9e bc
       0.012592585 -0.0739114 0.08362498 -0.019382054
000210 a2 a9 85 3d 3c 8b 1e bd 34 e5 26 bc ba 43 2a bd
       0.065264955 -0.038707003 -0.010186482 -0.041568495
000220 82 27 41 3d 4f af a1 bd 77 e4 8a bd 3b 24 80 bd
       0.04715682 -0.078947656 -0.067818575 -0.062569104
000230 86 83 f4 bc 8c c3 bb bd a9 83 0f bd 11 39 ea 3c
       -0.029847872 -0.09168157 -0.03503767 0.028591665
000240 92 9e 66 3d 3a 0a b3 3d 6d 2a 6b 3d 8e ec 2c bc
       0.05630357 0.08742185 0.057413507 -0.010554446
000250 1a c3 7d bd c5 c7 36 bd 4b c8 86 3d 84 9b 70 3d
       -0.06195364 -0.04462411 0.065811716 0.05874206
000260 80 13 a0 3c c4 ce 42 bd 8e aa 87 bd f2 68 0f bd
       0.019540548 -0.04756047 -0.066243276 -0.035012193
000270 f4 ca 61 3c 80 b9 ac bd a1 a8 ec 3d 4f ea d3 bd
       0.013781298 -0.08433819 0.11555601 -0.10347425
000280 08 cc 96 bd 63 6d 9f bd 45 ab 0f 3d cb 2e 2a bc
       -0.073631346 -0.07784536 0.035075445 -0.010387133
000290 be ed 49 3d 2c 6c 8d 3d 32 9b 19 bd 08 3f e4 3d
       0.049298994 0.06905398 -0.03750152 0.11144835
0002a0 dd ab a2 3d 5c 3b ad 3c 6a 5d e2 bc b6 35 cc 3c
       0.079429366 0.021146469 -0.027632434 0.024927955
0002b0 75 ca a3 bd 72 4a 24 bc 1b dd 9b bd 94 91 c8 3c
       -0.079976 -0.010027515 -0.07610532 0.02448348
0002c0 b8 3d 2f bc 11 11 00 bd fd 1d c0 bd 04 72 97 bc
       -0.010695867 -0.031266276 -0.0938072 -0.018486984
0002d0 74 58 c6 3d ec e7 13 3d 40 52 9e 3a d7 db 4f 3d
       0.0968484 0.03610985 0.0012078956 0.050746765
0002e0 64 33 83 3d 83 34 96 bd de bd 05 bc bb de 91 bd
       0.06406286 -0.073342346 -0.008162944 -0.071225606
0002f0 a8 47 c7 bd 9a 5e 8c bd 1d 96 9d bd 47 bf 24 3d
       -0.09730464 -0.06853981 -0.076946475 0.04022148
000300 85 ff 43 3e 54 99 da 3d 9f 33 1f 3e e4 e5 4c 3e
       0.19140442 0.10673776 0.15547036 0.20009571
000310 ea 9e 54 3e 48 fe f5 bd b5 6e 1c 3b b5 87 d3 3d
       0.20763746 -0.12011391 0.0023869697 0.103286184
000320 79 84 8a 3e 8d 6d 68 3e 97 c1 b8 3e b0 97 93 3e
       0.27054194 0.2269804 0.36085197 0.28826666
000330 9e 08 d8 3d 0a fd 09 3e 35 04 c6 3e 37 cc 46 3e
       0.105485186 0.13475433 0.38675085 0.1941384
000340 41 06 b4 3e fe 5d cc 3e d1 bc 24 3e 52 ec 71 3e
       0.3516102 0.3991546 0.16087653 0.23625305
000350 70 a4 da 3d 27 a7 fe 3d 41 7d 84 bd a7 63 43 3e
       0.10675895 0.124342255 -0.06469203 0.19080983
000360 fb d4 4d 3e 12 c8 27 3e 3a 01 25 3e 9c 2e ce 3d
       0.20100777 0.16384915 0.16113749 0.10067484
000370 0a 8d 2f 3d 0d dd a1 3b 2e e8 ac 3d 4f 0a 0c 3e
       0.042859115 0.0049396814 0.08442722 0.13675807
000380 e8 a4 1b bc 08 49 c0 3e ee 70 d6 3d db 5c fe 3c
       -0.009499766 0.37555718 0.104707584 0.031050136
000390 67 50 00 be 83 a4 92 3b 19 cc 83 bb 94 01 50 3d
       -0.12530671 0.0044751777 -0.004022133 0.050782755
0003a0 75 ab 37 3e 3f 6b 9b 3d b2 f0 3a 3e f7 a5 bc 3d
       0.179365 0.07588815 0.1825588 0.09211343
0003b0 4f ac 7a 3e 53 ab 22 3e 3d ce f6 3d 8e 40 96 3e
       0.24479793 0.15885668 0.120510556 0.29346126
0003c0 0a c4 62 3e 6c 7f a6 3e b1 c8 87 3e 4d ab 6e 3e
       0.22145095 0.3251909 0.26520303 0.23307534
0003d0 fb 6f 5f 3e 48 9b 85 3e 43 b9 0d 3f aa bb 78 3e
       0.21820061 0.26095033 0.5536081 0.24290338
0003e0 81 a0 3f 3e e8 6c aa bc 81 59 fa bd a9 ad d5 3d
       0.18713571 -0.020803884 -0.12224103 0.10433514
0003f0 b9 a3 e7 3d 2f 28 83 3e 70 aa 90 bd 4c a8 45 bb
       0.113105245 0.25616595 -0.070637584 -0.0030160127

lstm.bias_hh_l0 f4 [256]
000000 2b 28 1e 3e 49 77 62 bb 04 dd 36 3e 35 6b 06 3e
       0.1544501 -0.0034555963 0.17857748 0.13126834
000010 df 18 42 3e 3c 83 ec bd 8d 62 d4 3b 5d 29 fb bc
       0.189548 -0.115484685 0.0064814747 -0.030659372
000020 18 42 f7 3d 9f 5a 07 3e 16 45 76 3e cd f1 8b 3e
       0.12073153 0.13218163 0.24049792 0.27332917
000030 d4 26 85 3c 48 bf f4 3d 13 32 bd 3e 1c d0 7b 3e
       0.016253866 0.119505465 0.36952266 0.24591106
000040 2a a5 24 3e 0b 0c d1 3e 00 e1 86 3c 60 4d 80 3e
       0.1607863 0.408295 0.01646471 0.25059032
000050 36 14 c9 3d 24 97 39 bb 49 83 c0 3b 7e 3f 1f 3d
       0.09818308 -0.0028318847 0.0058750254 0.03887891
000060 fe c4 1b 3d 03 13 41 3e 5f 87 ca 3d 81 3b d5 3d
       0.038029663 0.18854909 0.09889101 0.1041174
000070 00 56 08 bd 3b 1c 76 3e dc 25 1d 3e 9e ee 81 3d
       -0.03328514 0.24034207 0.15346473 0.06344341
000080 88 17 54 3e cd ba 9e 3e 0b b9 89 3d 02 7c e6 3c
       0.20712101 0.31001893 0.06724747 0.028135303
000090 8e bc 00 3e d1 d0 e1 3d 8e 44 03 bd a3 34 80 3e
       0.12571928 0.11026157 -0.0320478 0.2504016
0000a0 9a 79 6d 3e eb 62 42 bd f3 85 af 3e 4d b9 2a 3e
       0.23190919 -0.047457617 0.34281883 0.16672249
0000b0 9c e6 98 3e 53 97 19 3e 0b f7 4a 3e c8 38 72 3e
       0.2986344 0.14999132 0.19820802 0.23654473
0000c0 29 d5 80 3e 18 6f be 3e 47 9d 38 3e 25 b4 95 3e
       0.25162628 0.37194133 0.18028747 0.29239002
0000d0 36 ba 27 3e 55 28 e1 3d 38 92 e1 3e 76 1d 7e 3e
       0.16379628 0.10994021 0.4405687 0.24815926
0000e0 83 99 3f 3e 6e f9 ce 3d c7 d1 12 3d 22 a0 68 bc
       0.18710904 0.10106169 0.03584459 -0.014198335
0000f0 db 44 43 3e f6 fb e3 3e fd 0f 3f bd 91 d6 57 3d
       0.19069235 0.44528168 -0.046646107 0.05269486
000100 34 89 23 3d b9 03 5d 3d ed 58 f0 3d 01 58 bb 3d
       0.03992577 0.05395863 0.11735711 0.09147645
000110 ae 58 03 3e d9 70 97 3d db 67 bf 3c 3b c7 8c bd
       0.12826797 0.07394571 0.023364952 -0.06873938
000120 6c 63 1e 3e 7a 90 fe 3d 68 ce c3 3e a7 a0 fb 3d
       0.15467614 0.124299005 0.38243413 0.122865014
000130 9b 85 d9 3c 3d 0a a9 3d 21 c3 2b 3e 19 ca e2 3d
       0.026552966 0.08253906 0.16773655 0.11073703
000140 00 83 ed 3d 57 bf 11 3e 1d 90 b3 3d a5 3c 95 3e
       0.11597252 0.14233147 0.08767722 0.2914783
000150 d9 25 cb 3d f5 33 8b bc 44 40 28 3e fd 0d 8c 3e
       0.09919328 -0.016992548 0.16430765 0.27354422
000160 e2 2f 37 3e f5 a5 02 3d e2 83 38 3e 09 b7 75 3d
       0.1788936 0.03189655 0.1801906 0.05998901
000170 79 05 24 3e fd 6b 69 3e 6c 73 94 3e 4c 6e 39 3e
       0.16017713 0.227951 0.2899431 0.18108481
000180 c9 d6 df 3d 5f 80 3f 3e bf 85 dc 3d df 1d 47 3d
       0.10929639 0.18701313 0.107676975 0.04861247
000190 6f a8 0b bd b2 61 4c 3e 98 b1 f3 bc e4 01 9f 3d
       -0.034096178 0.19959143 -0.02974777 0.077640325
0001a0 ab f4 d1 3d 54 99 a6 bc 71 cc aa 3e 05 12 dc 3d
       0.10251745 -0.020336784 0.333591 0.107456245
0001b0 c5 dd 79 3e 97 7c 99 bc e0 b8 dc bc 49 ba eb 3d
       0.24401005 -0.018736167 -0.026943624 0.115101404
0001c0 49 ef 92 3e bb 4a 4e 3e 9d 61 77 3e 45 ce 77 3e
       0.28698185 0.20145695 0.2415833 0.2419978
0001d0 56 7f 55 3d 32 86 e5 3d 5a ca 2a 3e 5c 53 32 3e
       0.05212339 0.11207236 0.16678753 0.17414612
0001e0 5e a6 20 3e fd d4 73 3e 21 b6 4e bc 54 28 e2 3d
       0.15688464 0.23811717 -0.012616665 0.11042848
0001f0 73 ab 25 3c 2f a6 db 3d c8 fc 14 3e 28 53 ee 3d
       0.010111677 0.107250564 0.14549553 0.116369545
000200 4a ee 37 3d 4e 31 d2 3c 33 4a 77 bc 88 e8 99 3d
       0.044904985 0.025658276 -0.015093374 0.07515055
000210 30 ab a4 3c be e4 1f bd 3b 11 16 3d d7 74 ad bd
       0.02010116 -0.039036505 0.036637526 -0.08469551
000220 8a ea ab bd 58 66 59 bc a4 f0 b1 3d a9 8a 47 bc
       -0.08394344 -0.01326903 0.08688477 -0.012179055
000230 96 4f d0 bc f7 58 84 3d 71 9c 08 3d 28 f0 04 bd
       -0.025428575 0.06462281 0.03335232 -0.032455593
000240 7f b6 b0 bd bc 6c cc bd 64 5d 1b 3b 44 3e 89 3d
       -0.08628558 -0.09981677 0.0023706788 0.06701329
000250 d7 f0 cf 3d 60 c5 4c 3d e8 1f e5 3c 65 56 4c bd
       0.101533584 0.04999292 0.027969316 -0.04988708
000260 27 29 8e 3c 2a 82 02 3c 4d d0 b0 bc 74 30 6f 3d
       0.017353607 0.007965604 -0.0215837 0.058395818
000270 5c 64 38 bd d5 cb cb 3d 48 f9 00 be bc 8d f8 3d
       -0.045017585 0.09950987 -0.12595093 0.12136409
000280 a4 28 a8 3d 70 85 00 39 1d a6 fe bb 17 4b 0c bd
       0.082108766 0.0001225674 -0.007771267 -0.0342513
000290 fa 54 49 3d b7 cc b0 bb 44 0f 8d bd 6c e3 ee bd
       0.049153306 -0.0053954977 -0.06887677 -0.11664471
0002a0 86 a9 0f bd a6 9d 71 bd dc 50 ba 3b bf ec f5 bc
       -0.03507378 -0.058988236 0.0056859087 -0.030020116
0002b0 78 75 32 3d 46 59 99 bd e7 b7 a5 3d 77 b7 b8 3c
       0.04356906 -0.07487731 0.08091717 0.02254842
0002c0 fa 62 8a bd 89 0a 20 3d 7f d0 d1 3d 5a d1 9c 3d
       -0.067571595 0.039072547 0.102448456 0.07657118
0002d0 8f 2c c8 bd 33 6e 6e bd 69 57 98 bd 33 54 bb bd
       -0.09774124 -0.058210563 -0.07438547 -0.09146919
0002e0 7d 57 0d bd 50 22 65 3c ad 63 9d 3d 10 a4 8c 3d
       -0.034507263 0.0139852315 0.07685027 0.0686723
0002f0 1e 74 22 3c fc 11 40 3d cf f1 e4 3d ff 5a 29 3d
       0.00991538 0.04689215 0.11178934 0.041346546
000300 be 82 63 3e 00 4d 53 bd 86 d0 ab 3d 39 c2 a9 3e
       0.22217843 -0.051587105 0.08389382 0.33155993
000310 e4 24 65 3e ba e1 99 3d 81 f7 9e 3d 45 69 a0 3d
       0.22377354 0.07513757 0.077620514 0.078325786
000320 b6 22 80 3e 70 61 16 3e 1c 25 43 3e 9b 6c 0b 3e
       0.25026482 0.14685607 0.19057125 0.13615648
000330 03 7b 56 bd fc 64 11 3e 55 d7 ba 3e f4 e4 fd 3d
       -0.052363407 0.14198679 0.3649241 0.12397185
000340 79 39 23 3e be e1 68 3e e5 7c bf 3d 2c 92 40 3e
       0.15939893 0.22742364 0.093499936 0.1880576
000350 c4 25 89 3e d6 28 c2 3d 7b db 90 bc 3f 92 a8 3d
       0.26786625 0.09480445 -0.017682781 0.08231019
000360 94 71 75 3c 8d a4 41 3e bb e9 44 3d eb bc 9e 3d
       0.014980692 0.18910427 0.048074465 0.07750877
000370 9c 7c 76 3c df 6c 5f 3e d4 32 20 3d d6 0e 00 3e
       0.015044358 0.21818875 0.039110973 0.1250566
000380 b9 b3 37 3e 5e 63 a5 3e 2b 22 80 3e 81 fc ef 3d
       0.17939653 0.32302374 0.25026068 0.11718083
000390 cf 2c f1 3d 9a b3 c5 3b 1d 65 6b bc fd 15 db 3d
       0.11776125 0.006033373 -0.014367369 0.10697553
0003a0 61 1d a3 3d bd d2 74 3d a7 c0 a1 3e c7 c5 ec 3d
       0.07964588 0.05977129 0.31592295 0.115611605
0003b0 db aa 76 3e c5 66 76 3e 0d de a9 3d 2c dd 09 3e
       0.24088614 0.24062641 0.08294306 0.13463277
0003c0 b3 f3 6a 3e f4 42 7f 3e 47 72 8a 3e c2 8f b1 3e
       0.22944526 0.24927884 0.27040312 0.3467999
0003d0 a7 ea 45 3e a4 cd 23 3d 67 73 e6 3e 77 30 99 3e
       0.19327794 0.039991036 0.4500992 0.29919788
0003e0 34 38 f1 3c 9e 2c 4a 3d de c7 84 bc a8 1a 85 bc
       0.029445745 0.049358957 -0.016208585 -0.016248062
0003f0 a7 b5 da 3d 69 1c 94 3e cd 36 62 bd 76 db 09 bd
       0.10679179 0.28927925 -0.055228043 -0.03365656

lstm.weight_ih_l1 f4 [256, 64]
000000 8b b0 94 3e c0 d6 50 bd 42 07 25 3e 94 42 16 be
       0.29040942 -0.05098605 0.1611605 -0.14673835
000010 84 54 04 bc c4 f6 4e be 91 ee d0 3d aa ad 25 be
       -0.008076791 -0.20211321 0.10201753 -0.16179529
000020 23 90 97 bd a0 bb 3e 3d 46 2f 1a 3c c8 87 b1 3d
       -0.07400539 0.046565652 0.009410685 0.08668476
000030 50 ef 4f bd 61 26 15 be 32 67 2e 3d 99 be 36 3e
       -0.050765336 -0.14565422 0.042578883 0.17846145
000040 d4 09 8f bd f1 31 c1 3e 3b 97 34 3d 34 32 18 3e
       -0.069842964 0.37733415 0.044089537 0.14862901
000050 20 5b 81 3e b1 58 8d 3d 8c 34 bd 3d 43 8b 97 3e
       0.25264835 0.06901682 0.09238538 0.29598436
000060 fb 82 37 3e c4 ee aa be 34 df 3a bd 01 21 50 3d
       0.17921059 -0.3338529 -0.04562302 0.050812725
000070 f5 cd 40 be 80 cf b4 bd 69 c1 c0 bd e0 74 d5 3c
       -0.18828566 -0.0882864 -0.0941189 0.026056707
000080 d0 52 43 3e 20 e2 ee 3d c7 db d0 bd 5a 57 25 be
       0.19074559 0.11664224 -0.10198169 -0.16146603
000090 e1 53 1c 3e 4a 04 30 3e ae f4 0d be 44 c2 a2 3e
       0.15266372 0.17189136 -0.13862869 0.31788838
0000a0 50 3d 84 3e 63 ba 20 3e 00 79 05 3e 7b 09 56 be
       0.25828028 0.15696101 0.13034439 -0.20902054
0000b0 27 a4 f1 3d 1e fe 92 3e 26 66 03 3d f7 62 0f 3e
       0.11798888 0.287095 0.03207984 0.14002596
0000c0 0f ff 1f 3d 96 54 f6 bd aa 4f 0c 3e a3 83 87 bd
       0.039061602 -0.12027852 0.13702264 -0.066169046
0000d0 ba b2 4a 3e 3e b3 83 3e 08 85 62 3e 9d 9d 24 3e
       0.19794741 0.25722688 0.2212106 0.1607575
0000e0 c7 40 08 be bb 07 38 be 56 51 b4 3d 4b c0 68 3e
       -0.1330596 -0.17971699 0.08804576 0.22729604
0000f0 52 0c 17 bd 48 3b 9f 37 03 d9 06 3d c1 ea de 3d
       -0.036876984 1.8981882e-05 0.032921802 0.108846195
000100 a7 39 0e 3e e7 1a 1d be 7e da ee 3e c5 73 ad 3e
       0.1388918 -0.15342294 0.4665107 0.33877388
000110 c5 be 90 3d 12 43 6d be 49 47 a3 3e 48 46 56 be
       0.070676364 -0.23170117 0.31890324 -0.20925248
000120 3b 38 50 be b4 a7 89 3d ba 31 80 bd ec 06 be be
       -0.2033395 0.0672144 -0.062594846 -0.37114656
000130 80 4f 7b be cd 32 c2 be f8 d8 bb 3d 35 8b 88 be
       -0.24542046 -0.37929383 0.09172243 -0.26668707
000140 b2 20 fc be 85 74 9b 3e 84 ee 00 3e cf be c8 bd
       -0.49243695 0.30362335 0.12590986 -0.09802019
000150 4e 9d d2 3e d5 a7 b8 3e 9f 04 18 3e 77 f4 a9 3e
       0.4113564 0.36065546 0.14845513 0.33194324
000160 b4 63 ef bb 99 d8 43 be 85 34 4b bd 32 a7 85 3e
       -0.0073055867 -0.19125594 -0.049610633 0.26104122
000170 bb 13 8c be bf 7d 92 be 55 27 ac be bf 83 bd be
       -0.27358803 -0.28611562 -0.33623758 -0.37014577
000180 c9 6a a6 3e 10 5a f5 3c 43 09 8b be 17 d0 bf be
       0.32503346 0.029950172 -0.27155504 -0.37463447
000190 11 71 39 3e ea 1d c6 3e de 73 b6 bd c4 e5 05 be
       0.18109538 0.38694698 -0.08908819 -0.1307593
0001a0 97 63 9f 3e c1 26 70 3e e3 1b 83 3e 24 00 db bd
       0.3113067 0.23452283 0.25607213 -0.10693386
0001b0 98 2a 25 be 2e e0 30 be ae a6 9f be 51 5d 2d 3e
       -0.1612953 -0.17273018 -0.31181854 0.16930129
0001c0 b0 ee 8e be b0 ae 03 bd ba 29 ea 3e b8 64 b5 3d
       -0.2791648 -0.032149017 0.4573496 0.08857101
0001d0 b8 c8 2e 3e 58 50 9a 3d 4c b5 8d bc 65 b2 66 be
       0.17068756 0.075348556 -0.017298363 -0.2252899
0001e0 c8 f3 ec bb cd 3a c1 3d 2a c6 8b 3e fd 36 b1 3e
       -0.0072312094 0.094350435 0.27299625 0.34612265
0001f0 6e 6d ae 3d 53 26 2d be 05 4e e5 3e 4c 0e 5a 3e
       0.08516966 -0.16909151 0.44786087 0.21294516
000200 e0 dd 1e 3e dd cf 76 be 05 bd 9c 3e 4c 18 18 3e
       0.15514326 -0.24102731 0.3061296 0.14853019
000210 c6 0d 08 bd 6e 35 44 be d8 26 c2 bb 6f d6 1c be
       -0.03321626 -0.19161007 -0.0059250407 -0.15316175
000220 1d c2 eb bd e7 7d 54 be c3 ed 00 be 54 bb 1c bd
       -0.115116335 -0.20751153 -0.12590699 -0.038264588
000230 ff df 00 bd 31 86 de 3b d2 ac 18 3e 79 d7 94 bd
       -0.03146362 0.006790899 0.14909676 -0.07267661
000240 e7 99 20 be 98 b5 b4 bc 25 95 80 3e 6d 29 a7 3d
       -0.15683709 -0.022059247 0.25113788 0.08162198
000250 6f 2d de 3e 31 26 c4 3d 2d 31 9d 3e 0d 1d 73 3e
       0.43394038 0.09577597 0.3070158 0.2374155
000260 14 d6 ba 3d e9 87 98 be 87 2d 31 3d d6 e6 71 3d
       0.091228634 -0.2979119 0.04325631 0.059058033
000270 bd 98 7b be 95 2a c8 3d dd c5 0e be c8 f8 4d 3d
       -0.24569984 0.09773747 -0.13942666 0.050286084
000280 f5 26 66 3e c6 38 89 be 10 f9 82 be af ed b9 be
       0.22475798 -0.26801127 -0.25580645 -0.3631415
000290 e2 af a8 3e 3b ea 0b 3d fa dc f9 bd 67 f0 27 3e
       0.32946688 0.034158926 -0.12200351 0.164003
0002a0 cb c5 00 3e a4 ed b1 3d fa 0c ad bb 0b 03 7a be
       0.12575452 0.086879045 -0.005281088 -0.24415223
0002b0 f9 9b 8e be 77 e7 ac bd 2e cc 80 bd 81 be c6 bd
       -0.27853373 -0.08442586 -0.06288944 -0.097043045
0002c0 28 f1 bc 3a 94 0a 21 bd 68 87 c5 3c 7a a3 97 3e
       0.0014415132 -0.03931673 0.024112418 0.2961691
0002d0 12 71 b7 ba ea cc 54 bd b9 4f 5c be 6b 4a f6 3d
       -0.001399549 -0.051953234 -0.21514787 0.12025913
0002e0 f9 87 60 3d cb d5 b1 3c e2 e5 6d 3e d0 52 01 3e
       0.054817174 0.02170839 0.23232225 0.12629247
0002f0 62 7a 29 bd 19 70 82 be f5 73 73 3e 6f 02 28 be
       -0.04137648 -0.2547615 0.23774703 -0.16407178
000300 1b 2b 9c 3e 25 b6 99 be 62 39 86 3e a3 c2 38 bd
       0.30501637 -0.30021778 0.26215655 -0.045107495
000310 96 11 4f 3e 8f fc a1 be 99 19 7d 3e 2d 47 b8 bd
       0.20221552 -0.31638 0.24716796 -0.08997951
000320 8a f1 37 be fb 3f 02 3d de d2 dd 3e a3 d5 63 bd
       -0.17963234 0.031799298 0.4332494 -0.05562366
000330 6b 6f 99 be 66 ac 9b 3d 58 cf b7 bc a1 6e f7 bd
       -0.29967818 0.07601242 -0.022437736 -0.12081648
000340 52 ab ae bd ec 15 f3 3d 19 07 ac 3e 43 b6 d8 bd
       -0.085287705 0.11869416 0.33599165 -0.10581639
000350 43 c0 2d 3e 7c 41 ff bc 73 32 3c 3e 5c ea ae 3e
       0.16967873 -0.031159155 0.1837862 0.34163177
000360 7f 99 de bd d6 47 8f 3b 24 1e 72 bd 1b 40 e9 3d
       -0.10869121 0.004372577 -0.059110776 0.1138918
000370 6c 7e 84 be 8e 72 5f 3d 38 0a ce bd 15 c4 bc bd
       -0.25877702 0.054552607 -0.10060543 -0.09217087
000380 f7 1c 97 3e 94 99 59 bd 11 8b c3 3c 34 ec da be
       0.29514286 -0.05312498 0.023870023 -0.42758334
000390 3e 59 6b 3e b3 22 a7 3e d5 06 84 be 1f 75 12 3e
       0.22983262 0.3264366 -0.25786462 0.1430249
0003a0 ec cd 10 3e 56 ca 0d 3b ca e3 82 3d 78 0b 0e bf
       0.14141053 0.0021635494 0.063911036 -0.5548625
0003b0 cc 57 87 be f5 ef 49 bd 63 b3 8c be 95 5e 3c 3c
       -0.2643417 -0.049301106 -0.2748061 0.0114971595
0003c0 68 17 3d 3d 82 05 6e 3e 6f 5f 0b 3e f6 2d a8 3e
       0.0461649 0.23244289 0.13610624 0.32847565
0003d0 44 7c a6 3d e5 08 8c bd cf dc cd 3d db ab a0 3d
       0.081291705 -0.06837634 0.100518815 0.07845279
0003e0 3b e9 15 be 7b 74 9a bd 76 40 5f 3e 02 19 7e 3e
       -0.14639752 -0.07541748 0.21801934 0.24814227
0003f0 53 f1 93 3d 0d 47 4e 3d 29 e8 c2 3d 12 64 5a 3e
       0.07223763 0.050360728 0.09516937 0.21327236

lstm.weight_hh_l1 f4 [256, 64]
000000 ea 75 36 be 1a 09 99 be 13 e4 3b be a0 73 83 bd
       -0.17818418 -0.29889756 -0.18348722 -0.06418538
000010 67 14 64 bd e0 5f 37 be 62 60 a0 3e ea a9 ec bb
       -0.05568352 -0.17907667 0.31323534 -0.007222404
000020 8c 92 a8 bd d6 06 67 3e e1 c4 e6 3c 03 f6 60 bd
       -0.082310766 0.22561201 0.028170051 -0.054922115
000030 d1 18 63 3e 8d 3b 62 3e 6b 20 30 be 69 ee 13 3e
       0.22177435 0.2209303 -0.17199866 0.14446415
000040 6f 00 e4 be fe 86 48 3c 2a d6 f9 bd d5 27 7b bc
       -0.4453158 0.012239216 -0.12199052 -0.015329321
000050 ac 16 cc 3d fe 82 e5 bd 80 0a 0c 3d c4 ae ab bc
       0.09965262 -0.112066254 0.0341897 -0.020957358
000060 ef 3f 2b 3d 45 e4 a1 3c 56 d9 84 3d 5a 65 7a ba
       0.04180902 0.019762168 0.06486766 -0.0009551846
000070 e1 dd 1f bd 4e 2d 33 3e a8 87 03 be a5 47 05 be
       -0.03902996 0.17497751 -0.12844718 -0.13015611
000080 99 5f 6e 3e 2c d6 21 3e 0b be 70 3e 73 39 5c be
       0.23278655 0.15804356 0.23509996 -0.2150629
000090 a1 40 79 be d5 e3 3b 3e 5a 70 c3 3d f5 11 01 be
       -0.2434106 0.1834863 0.09542914 -0.12604506
0000a0 58 c1 bc 3c c9 30 0a 3e d5 96 92 3c a8 14 d6 3b
       0.023041412 0.13495173 0.017894188 0.006533224
0000b0 94 06 06 bd 9a df 60 3d f8 2e 11 3c 9a 62 89 3d
       -0.032721117 0.054900743 0.008861296 0.0670826
0000c0 b3 3a a8 be 77 59 d0 bc 5d a9 62 3d a0 47 67 3d
       -0.32857284 -0.025433285 0.0553373 0.05646479
0000d0 7c af 8b bd a3 e8 15 be 06 94 96 bc 69 ec e4 bd
       -0.0682058 -0.14639525 -0.01838113 -0.11177904
0000e0 83 55 49 3e 53 fc 57 be 84 11 b2 3d a7 fb d2 bd
       0.19661526 -0.21092348 0.08694747 -0.10301905
0000f0 2f 80 c9 bc f9 7d 39 be 2c ad e9 bd 42 31 15 3e
       -0.024597256 -0.18114461 -0.11409983 0.14569572
000100 f3 dc a9 be a2 9c c0 3c 6d bd 8f bd e8 53 16 be
       -0.33176383 0.023512188 -0.07018552 -0.14680445
000110 85 34 6e 3e e2 6e 60 be 54 c0 e2 bd 97 32 a4 3c
       0.23262222 -0.21917298 -0.1107184 0.020043654
000120 7a a1 4c 3e 3b d4 07 3e 66 0b 2c b9 e9 87 6d be
       0.19983473 0.13264553 -0.00016407444 -0.23196377
000130 1e b3 25 3c 0d 86 0e bd 09 39 66 bc 9e c5 f4 3d
       0.010113506 -0.03479581 -0.014051684 0.11951755
000140 6c 43 37 be 68 d3 7b bd 0c 29 3f 3d 32 f5 33 bd
       -0.17896813 -0.06148091 0.046670005 -0.04393501
000150 42 66 8a 3e db 1d c5 3d 7b 16 b1 bb b7 64 dd 3d
       0.27031142 0.09624835 -0.005404291 0.108102255
000160 b3 f7 76 be 1c d9 4c 3e 44 57 18 3e f1 61 41 be
       -0.24117927 0.20004696 0.14877039 -0.18885018
000170 d0 0e 91 be 6f 5d e0 3c 02 9f bb bd b8 96 7c 3d
       -0.28331614 0.027388303 -0.09161188 0.061667174
000180 70 d0 c7 bd 75 db 04 3e 27 0c b2 3e 1c 24 32 3d
       -0.09756553 0.12974341 0.34774897 0.043491468
000190 bd 04 83 bd 7b b0 d9 3c 66 37 3a 3e ed 8b 96 be
       -0.06397388 0.02657341 0.18185195 -0.2940363
0001a0 c7 f4 d2 bd 90 38 83 3c d8 98 5c be a2 81 11 be
       -0.10300594 0.016018182 -0.2154268 -0.14209607
0001b0 81 bb 38 bd 8c c5 0e be bb d3 6d 3e f4 5d e0 bd
       -0.045100693 -0.13942546 0.232253 -0.1095542
0001c0 86 c9 5d bd c9 1b f9 bd f5 69 9a bc 26 32 54 3e
       -0.054147266 -0.12163503 -0.018849352 0.20722255
0001d0 72 01 8a 3d af 31 d1 bd a9 11 64 3d bf 42 4c be
       0.06738557 -0.102145545 0.055680905 -0.19947337
0001e0 a8 11 4e 3e 93 85 aa bd 5d 9a d2 bd 9c 12 08 3f
       0.20123923 -0.083262585 -0.10283349 0.53153396
0001f0 aa 59 5b be b2 91 c0 3d ec 58 b9 3d ee d7 96 3e
       -0.21420923 0.09402789 0.090501636 0.29461616
000200 b8 ab 22 bc 33 20 0d 3d fc 20 04 be 4a 1c 15 3d
       -0.009928636 0.034454536 -0.12903208 0.03640393
000210 61 5a ba bc 2c 27 23 be ae 9b 40 3d e0 cb 33 3e
       -0.022748174 -0.15932912 0.047023468 0.17558241
000220 ea 37 57 3e e0 cd 79 3d 30 04 bc 3e 63 ef 12 bf
       0.21017423 0.060987353 0.36721945 -0.57396525
000230 bb 2f 57 be e7 0f 95 bd ba 78 75 3c a2 5e bf 3d
       -0.21014301 -0.07278424 0.014982397 0.09344222
000240 bb 7d 4f be 23 a0 06 3c cd 8b 8c bd 49 5b 9b 3d
       -0.20262806 0.0082168905 -0.068626024 0.07585771
000250 71 ec 4f bc b0 22 7c be 86 4f e3 bd 1d 8e 9d 3e
       -0.012690649 -0.24622607 -0.11099152 0.30772486
000260 bf d3 db be 08 77 73 3e da 69 7b 3d 57 60 05 3e
       -0.42934987 0.23775876 0.061380245 0.13025032
000270 cc e5 c7 3c c7 ba 06 3e c1 f5 cd 3c 78 20 a5 3e
       0.024401568 0.13157187 0.025141599 0.32251334
000280 ef df 9f bd e5 45 8a 3d f8 12 16 bd 79 1f 27 be
       -0.07806384 0.067516126 -0.036639184 -0.163206
000290 5a dc 8f bb 08 96 bb 3e b6 54 6b be 95 21 fe bd
       -0.0043902816 0.36637902 -0.22981533 -0.12408749
0002a0 13 69 45 3d 25 d4 a7 be 20 67 84 be fc b8 10 be
       0.04819591 -0.3277904 -0.25859928 -0.14133066
0002b0 62 9b 52 be 40 b2 f2 bd d4 5d 70 bd 34 f5 05 3e
       -0.20567086 -0.11850405 -0.05868323 0.13081819
0002c0 15 a2 e1 3d f8 d5 82 3e 78 80 e7 3d 26 a5 af 3d
       0.11017243 0.2555387 0.113038 0.085764214
0002d0 0d ee a6 be 68 3f 5a 3e bb 23 45 3d b2 cf 80 bc
       -0.32603493 0.2131325 0.04812978 -0.015724037
0002e0 a2 84 aa 3b 23 e1 e5 bc de 39 1a 3a 22 75 6e 3e
       0.0052037993 -0.028061455 0.00058832567 0.2328687
0002f0 b6 b7 3f 3e 50 96 b6 3e a6 47 68 bd 01 09 bc 3e
       0.18722424 0.35661554 -0.056708954 0.3672562
000300 89 99 94 bd 02 8a d8 bd 40 e7 d4 be ec 66 5b 3d
       -0.07255847 -0.10573198 -0.4158268 0.05356495
000310 be 9e a0 bc 24 48 09 bd 33 74 3b 3e ae cd 0e bd
       -0.019606944 -0.033516064 0.18306045 -0.03486412
000320 7a 0d 02 3e 21 cd 8c 3e b8 fb 87 bd f9 54 8e bd
       0.12700453 0.2750025 -0.066398084 -0.06949801
000330 8a 13 02 3e 43 ee 8a 3e 4e f9 91 be 36 42 6d 3e
       0.12702766 0.27134904 -0.28510517 0.23169789
000340 98 e3 90 3d 3a 20 d5 be 7b 53 2f be 77 7f e4 3d
       0.0707466 -0.4162615 -0.17121689 0.111571245
000350 9e 31 5f 3e 9e dc ed 3b 21 f4 17 bd 75 a6 26 bc
       0.21796271 0.0072589656 -0.037098054 -0.010171522
000360 ff 47 6d 3d df d5 0f 3e ea e2 9d be c1 34 1a 3d
       0.05792999 0.14046429 -0.30837184 0.037647966
000370 63 fe 6c 3e 12 cb a1 3d 69 e6 a4 be ce 80 34 3e
       0.23143916 0.07900061 -0.3220704 0.1762726
000380 b1 f0 cb 3d d9 ea e1 3c f8 e5 fe bd 24 f7 26 be
       0.099580176 0.027577804 -0.12446207 -0.16305214
000390 07 d0 3e be 67 66 17 3e 65 17 6f bd 25 42 fa bc
       -0.18634044 0.14785157 -0.05837192 -0.030549118
0003a0 3b d8 cf bd db a2 b0 be 68 ef 5d be 4d c2 97 3c
       -0.101486646 -0.3449925 -0.21673357 0.018525267
0003b0 48 c3 88 be 5e 70 a3 3d 81 e5 a6 3e f7 71 bd be
       -0.26711488 0.07980417 0.32596973 -0.3700101
0003c0 28 6c 03 be 27 d6 23 3e fc 20 0c 3e 97 48 51 bd
       -0.12834227 0.15999661 0.13684458 -0.051094618
0003d0 93 a3 3a be 11 c9 10 3d d8 06 ac bd c6 58 66 be
       -0.18226461 0.035348002 -0.08399743 -0.22494802
0003e0 3f a0 8b 3e 3f 78 98 be 4d 3c 3f 3e a2 5e 31 be
       0.27270696 -0.2977924 0.18675347 -0.17321256
0003f0 b0 c1 aa bd 2c 67 8d 3d 0a fb 9b 3d 28 6a bb be
       -0.08337724 0.06904444 0.07616241 -0.36604428

lstm.bias_ih_l1 f4 [256]
000000 bc 2a 2a 3e 83 54 51 3d 75 8b ed 3d 39 88 80 3e
       0.16617864 0.051105987 0.11598865 0.2510393
000010 21 2b 1b 3e 87 d4 1c 3e 98 80 81 bb 17 ae 1c 3e
       0.15153171 0.15315448 -0.003952097 0.15300785
000020 22 a5 3d 3e a2 10 1f 3e ed e8 67 3d d9 77 32 3d
       0.18520024 0.15533689 0.05661862 0.043571327
000030 19 a1 43 3e 4c c9 30 3e 96 25 e5 3d cd c1 0e 3e
       0.19104423 0.17264289 0.111888096 0.13941117
000040 35 36 4b 3e 43 f2 a2 3d 1a 3a d7 3d a6 db 7a 3e
       0.19844897 0.07956364 0.10509129 0.24497852
000050 7c 05 3a 3d 7c 52 ca 3e 44 54 06 3e d4 51 ed 3d
       0.045415387 0.39516056 0.13118082 0.11587873
000060 1b d7 b4 3d 8e 69 96 3d aa 9e 02 3e 41 62 2c 3e
       0.088300906 0.07344352 0.12755838 0.16834356
000070 95 cb 60 3e 76 63 93 3d c7 89 37 3d 65 76 54 3e
       0.2195266 0.07196705 0.04480913 0.20748289
000080 5d d6 ba 3e 24 9a a4 bc d9 a6 44 3e 77 42 fc 3d
       0.3649167 -0.020093031 0.19204272 0.12317365
000090 0d 5a 50 3d 9b 33 bc 3e df b4 77 3c 42 96 32 3d
       0.05086713 0.36758122 0.015118807 0.04360033
0000a0 ea d7 46 3e 67 09 49 3e bd 88 38 3e 54 c2 a3 3e
       0.19418302 0.19632493 0.18020912 0.31984198
0000b0 b8 ec 83 bd a5 df 16 3e 6d fa a5 3d 27 f5 34 3e
       -0.06441635 0.14733751 0.081044056 0.17671643
0000c0 03 28 21 bd 15 e2 95 3e 0d bc 1b 3e fd 47 69 3e
       -0.0393448 0.2927405 0.15208454 0.22781368
0000d0 b7 10 91 3d c0 ca 96 3e 55 e3 04 3e ce 4c 1f 3d
       0.07083266 0.2945156 0.12977345 0.038891606
0000e0 a4 45 fa 3c 5d 90 d9 3d 2c 5f 6f 3e c3 70 a0 bc
       0.030550785 0.10623238 0.23376149 -0.019585019
0000f0 4b e1 b1 3d 5b 0a c7 3e 1d 94 27 3d bf ba 62 3e
       0.08685549 0.38875088 0.040912736 0.2214155
000100 28 82 cf 3c 34 d8 d8 3d 81 3e 42 3d 3e e9 c5 3d
       0.025330618 0.105881125 0.04742289 0.09663628
000110 d5 ba 7d 3c dd b7 d0 bd 26 51 05 3c 17 e2 0f 3e
       0.015486439 -0.10191319 0.008137023 0.1405109
000120 79 01 9e 3d a2 50 19 bd 3c 67 63 bd 54 8c 83 3d
       0.07715125 -0.037430413 -0.055518374 0.0642325
000130 a1 eb df 3d e3 a1 e1 3d 1d 1b 13 3d 5e 1a ab 3d
       0.109336145 0.110172056 0.03591453 0.083546385
000140 6c 07 35 3e a4 57 33 3e 4a 3f a3 3d 86 27 1e 3e
       0.17678612 0.17513901 0.07971056 0.15444764
000150 53 98 a2 3c 67 56 df 3c 24 c0 f3 bd 76 3f 39 bd
       0.019848024 0.02726288 -0.11901882 -0.045226537
000160 86 ad a9 3d 9b f8 82 3c 84 2b 25 bd a0 c6 4c bd
       0.0828505 0.015987685 -0.040324703 -0.04999411
000170 b9 7c 60 3e f1 38 9a bd d3 3f a4 bc cd 47 27 3e
       0.21922578 -0.07530392 -0.020049965 0.16335984
000180 db 8e 9d 3e 26 a8 d6 3c 48 87 0b be da 2d db bb
       0.30773053 0.026203226 -0.13625824 -0.0066888155
000190 b3 f9 52 bd e9 f5 ae 3c eb 83 b4 bd 13 11 ee 3d
       -0.051507663 0.021357493 -0.08814224 0.116243504
0001a0 f8 07 b6 3c d5 27 c9 3c 83 82 29 3e 11 19 cb 3d
       0.022220597 0.024555126 0.16553693 0.099168904
0001b0 48 a2 49 3d e6 5c 1b 3e f3 31 7b bc 1b e9 5b 3e
       0.04922703 0.15172157 -0.015331733 0.21475641
0001c0 88 7d f2 3d f8 6c 04 3d 40 97 fa bc 8c e5 15 3e
       0.118403494 0.032330483 -0.0305897 0.14638346
0001d0 d5 82 a0 3d b1 3f 05 3e d7 62 65 3e a2 23 d0 3d
       0.07837454 0.13012578 0.22400986 0.101630464
0001e0 b1 2f 9f bd ae a6 f3 3b fb d2 65 3d 0f 78 ee 3c
       -0.07772768 0.0074356413 0.05610941 0.029109983
0001f0 7a 8e c0 3d 57 87 c6 3d a0 a4 aa 3d e2 86 28 3e
       0.09402175 0.09693783 0.08332181 0.16457704
000200 08 61 5b 3d 74 0f 34 3d 46 4f 12 3d 95 86 64 bd
       0.053559333 0.04396005 0.035720132 -0.05579241
000210 42 83 59 bd 32 1b b3 3d 8c f2 af bc 42 81 4f bd
       -0.053103693 0.087454215 -0.02147796 -0.05066038
000220 3c 21 cf 39 4a 6f b9 3d 40 a0 7b 3c 4d 2f e3 bd
       0.00039506878 0.0905443 0.015358031 -0.11093006
000230 d8 a6 24 bd 96 78 66 bd f3 d2 31 bd e0 b3 fa 3d
       -0.040198177 -0.056267343 -0.043414067 0.1224134
000240 9f b6 df 3d 42 d4 02 be 3e 36 d0 3c cb 69 d5 3d
       0.10923504 -0.12776282 0.02541649 0.10420569
000250 4b b7 d5 bb 25 35 94 bc 24 34 b5 3c f5 e5 3b bc
       -0.0065220944 -0.018091748 0.02211959 -0.0114684
000260 fc 9a 9b 3d 4e 2f a4 3d bf 77 00 3d 44 ee a0 3d
       0.0759792 0.08016835 0.0313642 0.078579456
000270 30 fa 91 3c 1e d0 07 3d 42 29 43 3d 52 ef e7 bc
       0.017819494 0.03315746 0.04764677 -0.028312359
000280 b0 6f a6 3d 73 56 00 3e 48 02 8e bd fe 24 32 3c
       0.081267715 0.12532978 -0.06934029 0.010873077
000290 fd cc 95 bd 0a 9d d5 3d e4 e4 ed 3d 00 3b 56 bd
       -0.07314489 0.104303434 0.11615923 -0.05230236
0002a0 e3 28 38 bd f4 99 69 bd 4e 5e c0 bc 5e 94 8c bd
       -0.044960868 -0.057031587 -0.023482468 -0.06864236
0002b0 4d f9 c7 bd 3a d5 17 3d 1a 1d 69 bd 75 10 49 3d
       -0.09764347 0.037068583 -0.05691252 0.04908796
0002c0 d2 4f ca bc a8 b9 be bc 35 6d 38 bd 64 30 ce bd
       -0.024696264 -0.023281887 -0.045026023 -0.100678235
0002d0 16 86 41 3c 51 3a 03 3d da 81 19 3c 6e b6 47 bd
       0.011811754 0.032038037 0.009369338 -0.048757963
0002e0 6f 58 a2 3d 3e f5 a0 bc a7 35 3b bb b9 98 7c bd
       0.079270236 -0.01964819 -0.0028565915 -0.061669085
0002f0 74 79 00 be 1d 39 75 3d 5e 2a f2 3c 0c ee 26 3d
       -0.1254633 0.05986892 0.029561218 0.040754363
000300 53 bc 2b 3e 8f 63 f0 3d 53 78 64 3e f2 ad b1 3e
       0.16771059 0.11737739 0.22311525 0.34703022
000310 2b bc 21 3e 76 b2 ab 3d 21 65 f8 3d e9 3f a7 3d
       0.15794437 0.08383648 0.12128664 0.08166487
000320 95 8e 82 3e ce 6d 90 bc e5 6a 3f 3d d0 de f4 3d
       0.25499406 -0.017630484 0.046732802 0.119565606
000330 85 7b 98 3e 48 2d 82 3e 93 0f 7f 3d e5 34 f8 bc
       0.29781738 0.25425172 0.062270712 -0.03029866
000340 0d 52 db 3d 07 53 1a 3e 43 de 25 3d a0 b9 6b 3d
       0.10709009 0.15070735 0.04049517 0.057550073
000350 25 a8 a9 3d ca 5e c4 3e e0 6c 75 3e c3 dc 92 3d
       0.08284024 0.38353568 0.23967314 0.07171013
000360 34 65 28 3e ab f8 53 bd 2d c1 a4 3d 28 ea 25 3e
       0.16444856 -0.05175082 0.08044658 0.16202605
000370 b6 8a d1 3e 48 0d b7 bd 0a 84 05 3e 9c a7 9a 3e
       0.4092614 -0.0893808 0.1303865 0.30206
000380 d0 4f 91 3e 3e 9f f9 3c 0e a5 20 3e a8 05 75 3c
       0.28381205 0.03047144 0.15687963 0.014954962
000390 17 21 49 bd 2b 12 ee 3e 1a e8 4e bd 28 a5 ac 3d
       -0.049103823 0.46498236 -0.050514318 0.084299386
0003a0 46 f6 d3 3c 75 bd ef 3d 44 9a bf 3e ae c3 4c 3e
       0.025874268 0.11706058 0.37422383 0.19996521
0003b0 14 33 94 bd d9 01 03 3e d6 86 1a 3e 97 02 d6 3d
       -0.07236305 0.12793674 0.15090498 0.10449713
0003c0 92 32 54 bd df 39 40 3e 9f b6 8e 3d a0 de 94 3d
       -0.05180604 0.18772076 0.06968426 0.07269025
0003d0 08 d7 2c 3e f1 42 09 3e 06 39 7b 3e e4 90 d3 3d
       0.16878903 0.13404442 0.24533471 0.1033037
0003e0 70 c0 bb 3d 7c 5d 67 3c 9d ff 42 3e c1 1f e3 3d
       0.09167564 0.0141214095 0.19042821 0.11090041
0003f0 28 05 07 3e a1 e6 9c 3e 65 26 19 3d c7 09 95 3e
       0.1318556 0.30644706 0.03739013 0.29109022
